Assets/DNN Models/dungeon_autoencoder.onnx (onnx, 52369 bytes, 8 tensors)

sequential_2/dense_19/MatMul/ReadVariableOp:0 f4 [64, 64]
00000000: bd74 183d 2c4b 48be 383a acbc 5f50 17be
00000010: 152d 1bbe 6afb ab3a 507c bfbd 8d10 8dbc
00000020: bb1d aa3d ba4b db3d 33da db3d c70c b83c
00000030: 06a1 94bc 9a73 82be 497d 89be 209f 01be
00000040: 082b 1a3d 1952 0b3e 9a57 50bd 64f5 803e
00000050: 6275 9abc c51f 15be 5d61 b1be eacc abba
00000060: 9356 413d 2790 1d3d 89bc a2be e186 41be
00000070: 8773 333d 3533 e3be de20 d4be 141e 96be
00000080: 5984 993e d7b5 df3e baa2 de3d ca83 09bd
00000090: 0cdb df3c cdf0 15be 511f cabe 523f cbbc
000000a0: 9f64 313e c78a 133e c0a0 c73d 2e1c f4bd
000000b0: 4b7f 51be b471 d73d 8ea2 a0be 0bdd 12bc
000000c0: 042f 1d3d 2e27 513d 98d7 183d 3f09 4dbe
000000d0: ab11 193d 8e19 c03d 63cc a3be d503 4d3e
000000e0: c1ae 81bd 643a e9bd 7ee2 a7bd 4b1c 0cbe
000000f0: b77a 7e3e e2e5 913d 87e7 d9bd dc96 7c3e
00000100: 5132 503e 46f3 2b3d caa9 5e3e 18bf f4bc
00000110: 77cb 8dbe 263a 41be 059d 9b3d 978f 823c
00000120: 0f83 2a3e 0678 433d 438c 6f3e c413 30be
00000130: 77c1 89bd d0f1 1cbe 7973 3cbd 7e93 993d
00000140: 907b 7ebe a266 d8be c33f e9bc 89e9 9dbd
00000150: 44d5 383e 3e93 373d 07ba 2b3e 2ee4 bb3d
00000160: 02ab 45be 1722 d3be d880 23be cc86 e63d
00000170: f8e0 abbd 5e2f 8c3d 38ed cfbd b2d7 9bbd
00000180: ab5c 1abe 6ede a4be c567 a13e db69 453e
00000190: 87be 693e cd48 923d 9eb0 5dbe 6f8b f0bd
000001a0: 5a5a 6a3e a414 683d 41ca d6bc 3e92 273d
000001b0: 2600 2abe b0b4 94be d398 82be e70b 203d
000001c0: 6535 da3d 5622 343c d1a0 473d 0662 9bbe
000001d0: a0d4 5dbe 3fd4 8abe 012a 03be ff0e 6ebe
000001e0: 31e9 87bd c874 bbbd 1973 e1bd 6fb0 66be
000001f0: a276 3a3d 716a 46bd 3a1e 15be 8669 83bd
00000200: 7e3b b4bd bc72 37be 89cb 3d3e 1886 e43b
00000210: 795f 453e 38b3 3e3e 962f 10be bb8f 51be
00000220: 55ca 5bbb 7a91 85bc 373d b0bd 5c33 e0bd
00000230: a1fa 6dbe c347 cd3d 8fb6 06be 2f11 b33d
00000240: 3722 8dbe 5074 c0be 4cd3 ccbe e59a f4be
00000250: 1d34 bbbe fef1 63bd 6311 a9be 82f9 87be
00000260: bba2 933c 500b 7b3d af11 f3bd e72c 133e
00000270: a915 0c3e 14c9 de3e dc8b febc a758 8c3d
00000280: 117c d93d dfc9 253d f04c 40bd 6361 0f3e
00000290: 1ab7 d6bd ebbe dfbd 7696 45be 148f 33be
000002a0: 48b8 3c3d 0747 e53c eb82 dfbd 5b2e 2a3e
000002b0: 7c4d 2a3e 7b00 a13e c00e a0bd 3acb a3bd
000002c0: d1e5 e2bc 6973 d2bd 1336 11be 8599 4cbe
000002d0: d562 88be e026 a73d c8fe 3abd 93ab b8bd
000002e0: 6610 273e a218 823e bf0f b43d 75cf eabd
000002f0: ecf8 043d fbfb 5e3e c6ec 073e c8da 763e
00000300: 3b8d 1c3e 8954 963e 1a6b 923e b7c5 ba3b
00000310: 20ae 72bc ff7b 3abe 2de2 153d 3892 d8bd
00000320: ca0c 9fbd 2857 2dbe 8bec 7a3e 4ae2 cabd
00000330: a5a4 fabd 3280 8abe 4bc3 43bd d7b0 c6be
00000340: f667 25be 15ea c7be 0931 8c3d 8388 5ebe
00000350: 1adc 833e 4a9c c43d cbbf 7b3e 0e7e a4bd
00000360: 4974 1fbe e320 c1bd 4f0c 843e d448 ea3c
00000370: ac36 773e 80a3 8f3d 9478 cf3c fb34 893d
00000380: a3c8 d4bd 31dc 363e 2fb5 1d3d 0c9e 42be
00000390: 9db9 8dbe 63b2 fbbd 320f 82bd c0e3 b93e
000003a0: f896 abbd 6a6d d9bd 989f 603e a7d5 83bc
000003b0: 0c11 b9be 84a0 3bbc 2b47 12be c6b3 1ebe
000003c0: c48c 70be 057a 84be 3db2 83bd b1fc 553c
000003d0: 2cf9 1b3e bdd7 b53e 2aa0 2f3e a713 4d3e
000003e0: 127c 60be 8d03 533c e708 df3d ce97 393e
000003f0: 03d9 483d f189 e83d 88b6 243d a0c1 e5bd
0.037220705 -0.19559926 -0.021023855 -0.14776753 -0.15153916 0.0013121192 -0.093498826 -0.017219806
0.08306452 0.10707803 0.107349776 0.02246703 -0.018143188 -0.25478822 -0.26853397 -0.12658358
0.037638694 0.13605537 -0.050864793 0.25187218 -0.0188548 -0.145629 -0.34644595 -0.0013107334
0.047201704 0.038467553 -0.31784466 -0.18899108 0.043811347 -0.44375005 -0.41431326 -0.29319823
0.29983786 0.4369342 0.108708814 -0.03357295 0.02732613 -0.1464264 -0.39477018 -0.024810467
0.1732354 0.14408408 0.097474575 -0.11919437 -0.20458715 0.10519734 -0.3137402 -0.008963834
0.038374916 0.051062755 0.03731498 -0.20023058 0.037370365 0.09379874 -0.31991872 0.20020993
-0.0633216 -0.1138809 -0.08197497 -0.13682668 0.248515 0.07123925 -0.106398635 0.24666923
0.20331694 0.04198005 0.21744457 -0.029876277 -0.27694294 -0.18869838 0.075983085 0.01593761
0.16651557 0.047721885 0.2339335 -0.1719504 -0.067263536 -0.15326619 -0.04600856 0.07498835
-0.24851823 -0.42265803 -0.028472787 -0.07710559 0.18050104 0.044818155 0.16770183 0.09174381
-0.19303516 -0.41236946 -0.15967119 0.11256179 -0.08392519 0.06844972 -0.10152668 -0.076095
-0.15074413 -0.3220095 0.31524482 0.19278662 0.22826587 0.07142792 -0.21649405 -0.11745345
0.22886029 0.05666031 -0.026219489 0.04091095 -0.16601619 -0.29044104 -0.2550722 0.03907385
0.106547154 0.010994514 0.04873735 -0.30348223 -0.21663141 -0.27115056 -0.12808992 -0.23247908
-0.066362746 -0.09153134 -0.11008281 -0.22528242 0.045523293 -0.048441354 -0.14562312 -0.064166114
-0.0880041 -0.17914861 0.18534674 0.006973993 0.19274701 0.18623054 -0.14080653 -0.20464985
-0.0033537347 -0.01630472 -0.08605426 -0.10947296 -0.23240139 0.10023453 -0.13155578 0.08743512
-0.27565166 -0.3758874 -0.40004957 -0.47774425 -0.36563197 -0.055650704 -0.33021078 -0.26557547
0.018021932 0.061290085 -0.11868607 0.14372598 0.13680138 0.43512785 -0.03107255 0.068528466
0.10619367 0.040475722 -0.046948373 0.14001994 -0.104841426 -0.109250866 -0.19295678 -0.17535049
0.04607418 0.02798797 -0.109136425 0.16619246 0.1663112 0.3144568 -0.07815313 -0.07997747
-0.027697476 -0.10275919 -0.14180784 -0.19980438 -0.26637903 0.08161712 -0.045653135 -0.090171
0.1631485 0.25409418 0.08792066 -0.114653505 0.032463953 0.2177581 0.13273916 0.24106896
0.1528825 0.2936137 0.28597337 0.005699839 -0.014812022 -0.18211363 0.03659265 -0.10574764
-0.07766111 -0.16927779 0.24504296 -0.099064425 -0.12238435 -0.2705093 -0.047793668 -0.38806793
-0.16152939 -0.39045778 0.0684529 -0.21731763 0.25753862 0.09600122 0.24584882 -0.080318555
-0.15571703 -0.09430101 0.2579064 0.02859918 0.2414195 0.07013607 0.02532605 0.06699558
-0.10389831 0.17857434 0.03850287 -0.19005603 -0.27680674 -0.12289884 -0.063505545 0.36306572
-0.083784044 -0.10616572 0.2193588 -0.016093088 -0.36145818 -0.011451844 -0.14284961 -0.15498266
-0.23491198 -0.25874344 -0.06430481 0.013060735 0.1523177 0.35516158 0.17150941 0.20027028
-0.21922329 0.012879265 0.1089037 0.18124315 0.049035084 0.11354435 0.040213138 -0.11218572

sequential_2/dense_19/BiasAdd/ReadVariableOp:0 f4 [64]
00000000: a712 88bd 52c9 c4bd ee43 b5bd c21d a4bd
00000010: 5348 76bd d69b 22bd 9645 bcbd af48 92bd
00000020: f585 0abd 68cb fcbc 3d4e 1ebe ebed 33be
00000030: 5af4 1abe 3d6a c6bc c837 a2bd 9caf 43bd
00000040: d634 07be d136 91bd e438 09be d7df dfbd
00000050: 65c0 26be b86f 61bd 9cb5 e5bd 55d5 abbd
00000060: 4dd9 f2bd 2713 c9bd 1a7a 2fbd 6a3e 32be
00000070: 38eb 88be 69cc 0fbe b2d9 10be 0120 92bd
00000080: 34ba babd ab54 3bbe 4b58 63be b0dd 68be
00000090: 8cae 73be de38 e0bd 9ec6 08be 900d 70bd
000000a0: 25fa 91bd 4684 47bd caa0 f8bd eb62 5dbe
000000b0: 6686 54be a054 afbd 266b f3bd d8e9 bfbd
000000c0: b877 3bbd 8fa0 10be 4aee babd d78f 07be
000000d0: d40b 1bbe e61d 1dbe 7276 dabd 8695 d9bd
000000e0: 524c 8abd 884a 08be 1622 e0bc d203 10be
000000f0: be24 88bd 0c90 0bbd b4a0 ffbd 85be bcbd
-0.06644183 -0.09608711 -0.08850847 -0.08013488 -0.060127567 -0.039699398 -0.0919296 -0.071427695
-0.033819158 -0.03085871 -0.15459533 -0.17571227 -0.15132275 -0.02422058 -0.07920796 -0.047774896
-0.13203749 -0.070905335 -0.13400608 -0.10931366 -0.1628433 -0.055038184 -0.1121628 -0.08390299
-0.11857853 -0.09818106 -0.042841054 -0.17406622 -0.26741958 -0.1404282 -0.14145544 -0.071350105
-0.09117547 -0.18294017 -0.2220165 -0.22740817 -0.23797053 -0.109483466 -0.13357016 -0.058606684
-0.071277894 -0.04871013 -0.12140043 -0.21619765 -0.20754394 -0.08561063 -0.11885671 -0.09370774
-0.04576847 -0.14123748 -0.09127481 -0.13238464 -0.15141231 -0.15343437 -0.10667123 -0.106242225
-0.06752838 -0.13309681 -0.027360003 -0.14063957 -0.06647633 -0.03407292 -0.124818236 -0.09216026

sequential_2/dense_18/MatMul/ReadVariableOp:0 f4 [32, 64]
00000000: 74e4 f43e 5bcc 383e f932 1cbe 81c9 893d
00000010: 0818 53be f504 953e 1408 873e 6b7b 3dbe
00000020: 5a3a e93e 3584 f23d 55ee 873d fc69 89bb
00000030: e0d7 423d 5b01 19be fda4 323e c9b2 93bd
00000040: ef44 17be 4035 533e 2898 e6bc 71bb 693d
00000050: 66f7 eabc 8dd7 a03e b28f 263f 4a64 893d
00000060: 5e44 cb3d bcde 993e c86a f3bd 0ce2 803e
00000070: 762a e5bd aa40 64bd 50ef e63d d5cb a8bc
00000080: c7c1 dabc 13ec 393d 408f 743d 887e e9bd
00000090: 399f 1e3e 67d5 00be 8464 81be 531b bebe
000000a0: 0b4c 4d3e 12e0 9abe 48b5 e0bd e5ce 0d3f
000000b0: 4e34 893d 841c 07be 40e1 ccbd 2de6 6ebe
000000c0: 3413 ddbd 71ec a3be d7e4 8dbd 9f9e 65be
000000d0: 8b1e b3be e09b fe3d fa1e adbe 46f3 0bbd
000000e0: 2dea 6f3e 3739 aa3e 064d b2be d1cc 003e
000000f0: e14a 593e 604f 77bd baba a3be cb8c 873e
00000100: 56bd 0a3e f709 ce3d f8fc 03be bd9e 87be
00000110: a7e4 8f3e 8695 ecbe 11f0 213e 34a5 84be
00000120: 493e b73e d12e 433d e721 073e 8416 78be
00000130: 57c5 d3bd d5e2 963e 8a3f 80be c5f1 a13e
00000140: e518 bbbe a59b b33e cd57 23be dd87 593e
00000150: db33 13be df1a eebe 64c9 9c3d e7b6 5c3e
00000160: 9f2d 8e3d adc9 17bf 2301 583e fb2b 503e
00000170: 6b2e 703e cc13 3c3e bfa8 eb3d e340 26be
00000180: 6548 b33e 070f b5be 580b 7ebe d249 b53d
00000190: 93db 8fbe 596c 8b3e 0970 34be 58c2 c3bd
000001a0: 1a98 0abe ebdf 02bd 4041 fe3d dc09 0f3e
000001b0: 9c9e 103d b937 253e 92c3 9c3e 09f2 253e
000001c0: 799b 183d c045 d4be e413 4d3e a8cc 633e
000001d0: 8c76 373e cd47 2a3d c4e1 63bd 1914 2fbe
000001e0: ed9e 3c3d 2163 c43e af88 c0bd ec2d b43d
000001f0: 6148 b5bd 5591 bf3c bf41 ca3e 7536 583e
00000200: 5c75 74be b5d4 ff3d 05f2 ed3e b356 d23e
00000210: 8bda 99be b267 a23e ae5d abbe 8435 a4be
00000220: 443a 333e b3f9 aebe 153f dd3b 533b 62be
00000230: 132d 483e 4cfd 613e 289a 603d a745 ce3e
00000240: d960 1d3e 0296 33bd 2075 a0be a35b 9abe
00000250: 59f6 1b3e 5cca a03e 0d1e 6b3b 000a c23d
00000260: dc2a 9fbe a9fe 6d3d 419b 443e 255f 8cbe
00000270: 247f a43d a356 5a3e bc11 91be b800 b33e
00000280: cf57 8a3e 39fd ecbc 8026 4a3e d2ce 913e
00000290: 4a5e 563c 7db6 e33e ac0c 493e 3da2 1ebf
000002a0: 7658 a33c 8dab 76be 8837 313e 9512 b53e
000002b0: 0f71 063f 1ce8 5b3d 12a9 193e c3fc 993e
000002c0: c492 bebd cb18 6abe fd8a 7dbb 9ff2 333e
000002d0: 130d 693e 712f 86bd 7715 acbe ae34 003e
000002e0: 6d19 47be 5410 44be 33ed 0dbe 0ef8 c9be
000002f0: e56f 11bf dedc 0ebe 3010 6f3d 020c b6bd
00000300: f8cc e63c c21d 333e cb40 f7bb 7112 f2bd
00000310: 1c30 3c3e 1d83 db3d 8455 243e 3969 2abd
00000320: b431 273e 2a76 b0bd 0cb6 17be 0442 3abe
00000330: 51f6 393e 77f8 e2bd 6040 4dbe 99b4 ff3c
00000340: bede 95bc 17bb 05be 22b2 3dbe be06 ea3d
00000350: 2a70 353d ca0d 823e 8dbf b8bc 18a2 c83d
00000360: 550a 06bd e194 43be 44ae 01ba ffb8 213c
00000370: 5a3c 43bd 5bee 493e 5e06 28be ed17 adbb
00000380: 923f 89bd c6a3 f3bd c0e1 b33c 49eb b53c
00000390: aad7 18bb 006c 7fbe 2ce9 15bb 16f5 14bd
000003a0: f8a8 73be f5d1 45be 9036 0a3e 0826 0f3e
000003b0: 9879 0b3c 0345 2d3e 30be bb3d a246 3eb9
000003c0: d65e 63be 5526 7ebd 6c99 debc a04a 88bd
000003d0: 0bc5 26bc 489a 82be 88aa 0abe b764 3b3e
000003e0: 0e62 9dbd dd01 aa3d b708 bf3d 67bb debd
000003f0: 786a fdbc 0947 6c3e e497 3c3e fa68 9ebd
0.47830546 0.18046705 -0.1525382 0.06727887 -0.20614636 0.29105344 0.2637335 -0.18504111
0.4555233 0.11841623 0.06637255 -0.0041935425 0.047569156 -0.14941923 0.1744575 -0.07211835
-0.1477239 0.20625782 -0.028148726 0.057063524 -0.028682422 0.31414452 0.6506301 0.06708582
0.099251494 0.30052745 -0.11885601 0.2517246 -0.111897394 -0.05572573 0.11276114 -0.020605007
-0.026703728 0.045391154 0.059706926 -0.11401087 0.15490426 -0.12581407 -0.25272 -0.37130222
0.2004854 -0.30249077 -0.10972077 0.5539382 0.066994295 -0.13194472 -0.100039005 -0.23329993
-0.10794678 -0.32016328 -0.06928413 -0.2242379 -0.3498424 0.124320745 -0.33812696 -0.03416755
0.23429175 0.33246776 -0.3482439 0.12578131 0.2121997 -0.060378432 -0.319784 0.26474604
0.13548788 0.100604944 -0.12889469 -0.26488295 0.28104135 -0.46207827 0.15814234 -0.2590729
0.35789707 0.04765207 0.13196526 -0.24227339 -0.10340374 0.29469934 -0.25048476 0.31629768
-0.3654243 0.35079685 -0.15951462 0.21243234 -0.1437525 -0.46504876 0.076556 0.21554147
0.06942295 -0.5929211 0.21094184 0.20329277 0.23455207 0.18366927 0.11506795 -0.1623569
0.3501617 -0.35363027 -0.24809015 0.08851971 -0.2809721 0.272311 -0.17620863 -0.095585525
-0.13534585 -0.031951826 0.12414789 0.13968605 0.03530751 0.16134538 0.30617958 0.1620561
0.037257645 -0.41459465 0.20027119 0.22246039 0.17916316 0.04157238 -0.05563523 -0.1709751
0.04605 0.3835688 -0.0940107 0.087978214 -0.08851696 0.02338473 0.39503285 0.21114524
-0.23872894 0.124917425 0.4647371 0.4108177 -0.30049548 0.31719738 -0.3346991 -0.3207208
0.17502695 -0.3417488 0.0067519047 -0.22092943 0.19548444 0.22069281 0.054834515 0.40287516
0.15368976 -0.04384423 -0.3133936 -0.30148038 0.15230693 0.31404388 0.0035876066 0.094745636
-0.31087387 0.05810419 0.1919985 -0.2741634 0.08032063 0.21322112 -0.28333843 0.34961486
0.27020118 -0.02892934 0.19741249 0.28478104 0.013084004 0.44475165 0.1963374 -0.61966306
0.019939642 -0.24088879 0.1730634 0.3536574 0.52516264 0.053688154 0.15005901 0.30075654
-0.09305337 -0.2286102 -0.003868758 0.17573021 0.22758894 -0.065520175 -0.33610126 0.12520096
-0.19443293 -0.19146854 -0.13860016 -0.39447063 -0.5681136 -0.13951442 0.058365047 -0.08889009
0.028173909 0.1749182 -0.0075455657 -0.11819924 0.18377727 0.10718367 0.16048247 -0.041604254
0.16327554 -0.08616288 -0.14815539 -0.18189245 0.18160369 -0.11082547 -0.20044088 0.031214045
-0.018294688 -0.1305965 -0.18524984 0.11427067 0.04429642 0.25401145 -0.022552276 0.09796542
-0.032724697 -0.19099762 -0.0004946927 0.009870767 -0.047664978 0.19719832 -0.16408679 -0.005282393
-0.06701578 -0.11896472 0.021958232 0.02220692 -0.0023321905 -0.24943542 -0.0022874577 -0.036366545
-0.23794925 -0.19318374 0.13497376 0.13979352 0.008512877 0.16920857 0.09167135 -0.00018146125
-0.22204146 -0.062048275 -0.027172767 -0.066548586 -0.010178815 -0.25508332 -0.13541615 0.18300138
-0.07684718 0.08301137 0.09327834 -0.10875588 -0.030934557 0.23073973 0.18417317 -0.077348664

sequential_2/dense_18/BiasAdd/ReadVariableOp:0 f4 [64]
00000000: d9fe 683e 97e5 fe3d eb4a 543e a71e 10bc
00000010: a42b fb3d c2c5 29bd ed1f ad3d 908a a23d
00000020: b31a 813e 6166 4ebc 0eb3 4f3e 440e b0bd
00000030: de81 253b e285 123e de21 323d 0f75 673e
00000040: 4b64 de3d eaa1 023e 6691 8f3e 9a79 aa3d
00000050: ba3d cb3e 44e1 1e3e 06de 0cbd fc0e dcbd
00000060: 1946 58bd 6622 07be cfd7 8b3d ddbe 50bc
00000070: c2f2 bf3e 1b82 bebc 9f6b bb3d a96e 453c
00000080: 7380 a6bd 2498 0bbe 02f5 22bc 285f 8b3d
00000090: 1fce ff3d 56dc 173f 7c90 c8bd 8506 88bd
000000a0: 73f2 4a3e 7139 ff3d 8228 aebb f1e0 123e
000000b0: 566a 533e 056a c23d ac87 033e 39dd a43d
000000c0: 49cd d53e aabf b0bd 7f71 05be 84d0 453e
000000d0: e448 c03d 6169 1c3e 7190 d9bd b417 f63d
000000e0: a2bf 553d 9142 f13e 7ae7 883d b60c 3ebd
000000f0: c5ea 07bd 022a 3cbe 0322 633e 5ed4 103e
0.22753467 0.124461345 0.20731704 -0.008796371 0.12264183 -0.041448362 0.08453355 0.07936585
0.25215682 -0.012597651 0.20283148 -0.08596471 0.0025254409 0.14308885 0.04348933 0.22603248
0.10858973 0.12757078 0.28040618 0.08323975 0.3969553 0.1551562 -0.034391426 -0.107450455
-0.052801225 -0.13196716 0.068282716 -0.012740818 0.37489897 -0.023255398 0.091513865 0.012050309
-0.081299685 -0.13632256 -0.00994611 0.06805259 0.12490486 0.5932058 -0.09793183 -0.066418685
0.1981905 0.12462128 -0.0053148875 0.14343621 0.20646033 0.09492878 0.12844723 0.080500074
0.41758183 -0.08630307 -0.13031577 0.19317824 0.09388903 0.15274574 -0.10623253 0.1201624
0.05218471 0.471211 0.06684776 -0.04639884 -0.033182878 -0.183754 0.22180943 0.14143512

sequential_2/dense_17/MatMul/ReadVariableOp:0 f4 [64, 32]
00000000: ba4e e23e d79d 08bd 2305 8f3d 0233 fcbd
00000010: 51ed 013e f47a 023e 0a05 943e ff92 543d
00000020: 35c0 513e a46d 5cbe 60cc b03e 8929 a13e
00000030: eb1b 99be 0162 39bc 6e6e 603e e6d6 1d3e
00000040: 9494 9f3d a581 c6bd bf0d 073e 49a8 f0be
00000050: 5f89 cb3e be9d 343e 7cb9 963e 91d1 4fbe
00000060: b88a 9f3e d817 dabe 81f6 71be 4204 c03d
00000070: 11ff b0be 23b8 873e 59b0 d4bd 38a5 b63e
00000080: 5def c3be 28dc 843d fa8b 63be 1143 08be
00000090: 6f2f f23e e5f2 0bbe bb3e 263e da13 113c
000000a0: cb51 dd3d 26c4 733c 7861 68be 0f61 e23e
000000b0: f059 043f e963 093c fec7 ac3e e01c e5bd
000000c0: c2d8 543e bf75 4fbe df57 8e3d 0118 893e
000000d0: 9f4a ec3c e3bd 903e 78b2 f3bc f059 853e
000000e0: da1f d03e a010 593d d73b 93be 28f4 0cbd
000000f0: b369 273e 102e 67be ece6 553e 1aef 253e
00000100: f287 a73d 0449 2dbe 7935 43be ebf0 003e
00000110: 1062 8a3e 24ab dc3d 60a9 81bd 96ae b53e
00000120: 4f3d a33e aa6b 943d 835d 9f3e d7cf 483e
00000130: e234 933e 82b8 fbbd 6c39 9e3e 0b37 d03e
00000140: 83ec d1bd 6291 8abd 335b a9be 1203 c1be
00000150: aefc 59bd d2e7 c8be 9284 a2be bc26 8a3e
00000160: f8dd f53d 8584 783e b9ae 77be 3d1c 903d
00000170: a4a5 243e cb5d 303e 9edb afbd 3d23 083f
00000180: 182e 2abe ed3b acbe fc88 ec3d 64ed 04be
00000190: b182 783e 81a0 6a3e dc7e 9dbd 19b9 1ebe
000001a0: c511 21be 7771 5a3e c5b5 81bd 009c 4d3e
000001b0: 3db2 42be f47c a63e d1d2 fc3e c63f 56be
000001c0: c76d 93bb 0956 4c3e 5ea5 06be bb52 233e
000001d0: 864a b83e 5080 a83d 97f0 34bb 3350 d4be
000001e0: 20bb d13e 65c6 343c d9ab 873e a5e9 01be
000001f0: b19c ee3d edfa 113e f541 c43e ec7e 9d3e
00000200: f262 9fbe bd45 023e d03b 7a3e cc8b abbc
00000210: 90ed a8be 741d a13e e763 b03e bd9b a13e
00000220: b9f7 ef3c 2779 fd3d 3b14 b93e 687f cd3e
00000230: 6cd2 95be c07a a73e eadb 773e 489c 3bbe
00000240: 47d7 efbe 753e babe 9833 70be 2dd0 8ebe
00000250: 931f a13c bc54 503e 7ae6 0e3d 8741 ddbd
00000260: 8671 37be e5a4 593e ffe6 4bbe f156 2bbd
00000270: 48b8 aa3e 6a4c b83d b3c7 123d bf38 c2be
00000280: 390a 5abe 02aa 8a3e e123 4cbd 8808 25be
00000290: 422b 49bd cb8e 4fbe dff4 34be 6841 06bd
000002a0: 0b6f 9b3e 3659 90bc 3e23 ebbd 8a1d 34be
000002b0: 9d89 59be 2366 873e 757e c5bd 4add 63be
000002c0: c2ec 13be 0ffe eabd 998d ef3d 599e 57be
000002d0: fb31 5a3c 783f c93e 060f f8bd 46de 0b3d
000002e0: 7e28 f5bd 4925 73be 2dbe 8d3d 82ed c23e
000002f0: 6305 753e 88d6 cc3e 52d9 40be c852 ce3e
00000300: dc9d 7d3e 1e43 adbe b66f 933e 8bb6 01be
00000310: 46e8 54be b8e0 1b3e 3de4 2cbe 0efc c23e
00000320: cba0 53bd a67b fb3e ea56 8c3e 055e b7be
00000330: 3669 563e 4c25 a33d 41dd e5bd be39 1abe
00000340: 92b5 633e 55d0 9abe d7be 853e 29f4 033f
00000350: 63a3 193e 579a fd3d 00ad 99bc 67ed 10be
00000360: 22ad 82be 2825 a13e 0908 b3bd 40ca 1b3d
00000370: ab23 093d c037 8abc e921 8abe eee4 793e
00000380: 1675 733e 2491 f3bc 29a5 a0be 9951 f53d
00000390: 7a02 0ebb 7ce1 abbe 567b 8cbe 6a07 a2be
000003a0: 4f95 e7be 3a5f e63e a1c4 583e 517f 513e
000003b0: 4b9f 5d3e 9a8d 783e 0631 b9bc 4f92 3bbe
000003c0: 1d81 643e 01d3 3f3d 5bae a23e 1816 c3be
000003d0: c396 5a3e f94a 613e c3d3 c53c 1b25 9d3e
000003e0: 621d 95bc ff86 eabc 0d0a 80be 285a a0be
000003f0: a82e a13e 00a2 663e 49e6 613e b520 bb3d
0.4420069 -0.033353653 0.069834016 -0.123144165 0.12688185 0.12742215 0.28910094 0.051898
0.20483477 -0.215262 0.34530926 0.31477 -0.29904112 -0.01131487 0.21917126 0.15414008
0.07792011 -0.096926965 0.13188837 -0.4700339 0.39753243 0.17638299 0.29438388 -0.20294787
0.31160522 -0.42596316 -0.2362919 0.09375812 -0.345696 0.26507673 -0.10385198 0.35672927
-0.38268557 0.06487304 -0.22221366 -0.13306834 0.47301814 -0.13666876 0.16234867 0.008854831
0.108066164 0.014878308 -0.22693431 0.44214675 0.51699734 0.008385637 0.33746332 -0.11187148
0.20785812 -0.2025976 0.06950354 0.26776126 0.028844176 0.28269872 -0.029748186 0.2604518
0.406493 0.05299437 -0.28756592 -0.034412533 0.16348915 -0.22576165 0.20888871 0.16204491
0.081802264 -0.16922385 -0.19063367 0.12591903 0.2702794 0.1077483 -0.06331134 0.3548476
0.31882712 0.07247098 0.3112603 0.19610535 0.28751284 -0.122910514 0.30903184 0.40666994
-0.10250189 -0.06766011 -0.33077392 -0.37697655 -0.05321949 -0.39239365 -0.31741768 0.26982677
0.12005228 0.24269302 -0.24187745 0.07036636 0.16078812 0.17223279 -0.085868105 0.5317877
-0.16619146 -0.3363947 0.11549565 -0.12981182 0.24268605 0.2291279 -0.07690212 -0.15500297
-0.15729435 0.21332346 -0.06333498 0.2007904 -0.19013305 0.32517207 0.4937959 -0.20922765
-0.0044991705 0.19954695 -0.1314902 0.15949528 0.35994357 0.08227599 -0.0027609223 -0.41467437
0.40963078 0.011033629 0.26498297 -0.12686785 0.1165098 0.14255877 0.3833157 0.30760896
-0.31130177 0.12721916 0.24436879 -0.020940684 -0.32993746 0.31467783 0.3445122 0.3156413
0.029292928 0.123766236 0.36148247 0.40136266 -0.29262102 0.32710838 0.24204984 -0.18321335
-0.4684393 -0.36375776 -0.23457181 -0.278932 0.019668376 0.20344824 0.03488777 -0.10803514
-0.179144 0.21254309 -0.19912337 -0.04183096 0.3334372 0.0899895 0.03583498 -0.3793392
-0.21292962 0.2708283 -0.049838904 -0.16116536 -0.04911352 -0.20269315 -0.17671536 -0.03277722
0.30358157 -0.017620664 -0.11481331 -0.17589393 -0.21243902 0.26445112 -0.096432604 -0.22252384
-0.14445785 -0.11474239 0.116969295 -0.21056499 0.01331758 0.39306235 -0.121122405 0.034147523
-0.11970614 -0.23744692 0.06921039 0.3807183 0.23927836 0.40007424 -0.18832901 0.40297532
0.2476725 -0.3384027 0.28796166 -0.12667291 -0.2079173 0.15222442 -0.16883941 0.38082927
-0.051667016 0.49117774 0.2741006 -0.3581392 0.20938572 0.07966098 -0.112238415 -0.1506109
0.22237232 -0.3023707 0.26122162 0.51544434 0.15003733 0.123829536 -0.01875925 -0.14153062
-0.25522715 0.3147366 -0.08741767 0.038034678 0.03348128 -0.016872287 -0.26978996 0.24403736
0.23775133 -0.029732294 -0.31376007 0.11978454 -0.0021668957 -0.33570468 -0.27437848 -0.3164628
-0.452311 0.44994527 0.21168758 0.20458724 0.21642797 0.24272767 -0.022606384 -0.18317531
0.22314878 0.04683209 0.31773648 -0.38102794 0.21346574 0.22001256 0.024148827 0.30692372
-0.018202487 -0.028628824 -0.25007668 -0.31318784 0.31480908 0.22522736 0.22060503 0.09137098

sequential_2/dense_17/BiasAdd/ReadVariableOp:0 f4 [32]
00000000: 5f90 943e 99f9 e73e d1a5 b23e 28ab 7ebc
00000010: 3432 053e 419e fe3b 2264 c73d 37cf 3bbe
00000020: 7997 32be 5f0c 843e 9f02 ee3d 33ec 813d
00000030: 92f4 283d 3d0f 393e 5e22 a43e 94fd 563e
00000040: 8295 513d 669e 38be 1cdb 943e 0222 b6bc
00000050: d380 aa3e 5fa1 b13d 282e 7ebc eddb cf3b
00000060: 0e22 933e 64a8 193e 1528 1c3d 81c3 833d
00000070: 7300 573e d3f5 cebd b32e 013f 2d1e 14bd
0.29016396 0.45307615 0.34892133 -0.0155437365 0.13007432 0.00777033 0.09735896 -0.18340765
-0.17440595 0.25790688 0.11621594 0.063438796 0.041248865 0.18072219 0.3205747 0.2099517
0.051167972 -0.18029174 0.29073417 -0.022233013 0.3330141 0.08673357 -0.015513934 0.006343356
0.2873692 0.15005642 0.038124163 0.06433774 0.20996265 -0.10105481 0.5046188 -0.03616159

sequential_2/dense_16/MatMul/ReadVariableOp:0 f4 [64, 64]
00000000: a074 c0be a701 903e 2962 d5bc a5a0 f03d
00000010: fbf0 60bd 6618 5b3e 3a96 943c 5204 143d
00000020: fd7d ebbd 32c3 fe3e 9250 b03d 8aec a33e
00000030: fcf8 9a3d 0d12 ff3d a484 95be 1552 8bbe
00000040: e8b9 82bc 028b 2d3e bef0 0d3d 79d9 cfbd
00000050: 9ab7 e63d 582a 373d 57d8 023f d132 e73d
00000060: c149 2f3e 57ef 013e cab3 a03d b12b 203e
00000070: 8790 17be f48b 68be 59a2 a4be 80d8 513e
00000080: 166a 42bd f777 95bd eca1 a2bd d9a7 343e
00000090: 908b ce3d 327a 843d 2b2d a23c 3118 c43c
000000a0: 7d83 953d 94ef 0f3e b542 8e3d d49a 1e3e
000000b0: 284d b13e b1c3 503e caac c43d 6c63 b2bd
000000c0: de31 ae3e 9393 813e 19ea 03bf b7a8 e23b
000000d0: e22b 9dbe 66ae b0be 8901 9e3d c096 13be
000000e0: ac70 413e 0302 41be 89c3 fcbd d500 5b3e
000000f0: a7fb e63e 7111 a63e 326c abbe d4cc 1b3e
00000100: 48f3 283e 18ca cc3e 4d18 6abe 2d74 373e
00000110: 4775 dcbd b12d 213d ef5b 583c 3ba0 da3d
00000120: dbf4 673e e799 30bc 5692 033f 308e f3bd
00000130: f005 f13d 6f03 2fbe c3fe 2bbe a819 a03c
00000140: 5149 0e3d 48d1 5f3e ed92 d5bc 8ba4 be3e
00000150: e3d4 173e 40e2 ad3d 3f4a 9cbe 4a4d 853d
00000160: ab81 2c3e fe1f 3e3e e8ae 16bf acbb c1bc
00000170: e7ca 2bbe 1a86 1dbd 6fd4 2dbe 9231 ad3d
00000180: 362a 89be 82df 3bbe b533 30be 492a 443e
00000190: acca d7be d73a 3ebd bb1e 5cbe 9fc0 153e
000001a0: 59f4 253e 8a01 c43d 9e46 a43d 9f93 1f3e
000001b0: 2c9d e23e 07da 0fbe 8be0 853d 14a0 363e
000001c0: cb58 ea3e 5709 06be ac2b 80be 5218 163f
000001d0: ff63 263e 40fa 583e 8a76 afbe b22a 0ebf
000001e0: eb92 d63e e34b 583e e094 ffbd 9b5a bf3b
000001f0: f9ce 593e 250f 7b3e 8513 80be 96ca da3d
00000200: bebb 17be 274c f03c 23d9 783e ba56 0ebd
00000210: baa5 8abd 6b47 303c d0e7 003f de96 913d
00000220: 4d70 333e 95c0 de3c 8802 033f c7b2 003e
00000230: 31bb 283e 2f67 4dbd bfa5 f7bd 804f 943e
00000240: 525c b03d 063d 8e3e 5d0d 87bd f00d c13d
00000250: 92a7 943e 60af 99be 05bd ccbe 84d6 48be
00000260: 7a94 05be 74f2 243e 5717 93be f026 0abe
00000270: 2b93 c1bd e678 a93e d830 4e3c ae5b 453e
00000280: c231 82bd 13d3 05be 1f2d c63d 5810 0cbd
00000290: a9b2 a0be 7904 133e 2863 73be fee3 5cbd
000002a0: 9840 3ebd 5a08 ac3e cf40 983e 4a4f 813e
000002b0: e3cd 463e 1d7f a5be 3667 093e 1581 a13d
000002c0: f0ec a1bd 1e00 0bbf 61d9 cb3d c1f7 6a3e
000002d0: 3b03 8abd 0163 10be 711e ce3c 9ee7 693d
000002e0: 312f 033e 2132 803e 5d78 d2be a959 06bd
000002f0: c466 bfbd d53a 01bf e650 db3d 8760 c03c
00000300: 0b3c 1c3d 6f4b 813d f51f 1dbc aef8 96bd
00000310: a804 d33d 0b9a 513e 96a7 733c a3e8 8d3e
00000320: f675 a23d 94c4 393d 49cd df3e f351 e33c
00000330: 0d04 043e 3203 2bbe 31dc 9ebd 1206 e43e
00000340: 93eb adbd 6b9e 1c3e 9938 34be 24f6 5d3e
00000350: 0b2b 7d3e 0ef9 383d 12ce 1fbf 6a4d eabd
00000360: 3b48 e0bd e03b ca3a 82b1 163d 30c2 09be
00000370: ba01 8cbe 6147 87bc ea8a 383f e5d2 a6bd
00000380: 2a52 693d 7a3c 6bbd 45f1 783e e04c 1ebe
00000390: 0d70 933e b69e f13e 3380 29be 77fd a63d
000003a0: 2b5a 203f a0c9 553e 5cee ae3e 8ccc a33e
000003b0: 9495 e23d 143a 263d 4bba 94bd 86f5 4e3e
000003c0: b59e 0a3e abac e5be c22f b03e a321 fc3b
000003d0: 9879 8cbe a351 063f 4b84 98bd 6671 833d
000003e0: 6dc3 113e 9a67 df3e 1bd6 a53e c29f 71be
000003f0: c4fb 5fbd e1fa 2a3e 1bdf 153e ea93 92be
-0.37588978 0.2812626 -0.026047783 0.117493905 -0.054917317 0.21396026 0.01813804 0.036136933
-0.1149864 0.49758297 0.086091176 0.32016402 0.07567021 0.12454615 -0.2920276 -0.2721106
-0.015957788 0.16947559 0.034653418 -0.101489015 0.11265488 0.044718117 0.5111136 0.11288989
0.17117979 0.12688957 0.07846792 0.15641667 -0.14801227 -0.22709638 -0.3215511 0.20492744
-0.047464453 -0.07298272 -0.079410404 0.17642154 0.10085213 0.064686194 0.019796928 0.023937317
0.0730047 0.14056236 0.06946317 0.1548875 0.34629178 0.2038715 0.096032694 -0.087103695
0.3402242 0.25307903 -0.5152908 0.006917085 -0.30697542 -0.34508055 0.077151366 -0.14412975
0.18890637 -0.18848424 -0.12341983 0.21387036 0.4511387 0.32435182 -0.33480984 0.15214854
0.16499054 0.39997935 -0.22860833 0.17915411 -0.107645564 0.039350215 0.013205512 0.10675093
0.22651999 -0.010778881 0.51395166 -0.118923545 0.117687106 -0.17091154 -0.16796403 0.019543484
0.03473789 0.21857178 -0.026071036 0.3723491 0.14827304 0.084904194 -0.30525395 0.06508882
0.1684634 0.18566892 -0.58860636 -0.02364906 -0.1677662 -0.038457967 -0.16975568 0.084567204
-0.26790017 -0.1834698 -0.17207225 0.19156756 -0.42146814 -0.046442833 -0.21496098 0.1462426
0.16206492 0.09570606 0.08021282 0.15583657 0.44260538 -0.14048015 0.06536969 0.17834502
0.4577087 -0.130895 -0.2503332 0.5863086 0.16249083 0.21189213 -0.34270126 -0.555339
0.41908965 0.21122698 -0.124795675 0.0058396584 0.2127036 0.24517496 -0.25014892 0.106831715
-0.14817712 0.029333187 0.24301581 -0.034750678 -0.06769891 0.010759215 0.5035372 0.07108854
0.17523308 0.02719144 0.5117574 0.12568198 0.16477658 -0.05014723 -0.120921604 0.28966904
0.08611359 0.27780932 -0.06594346 0.094264865 0.29034096 -0.30016613 -0.3998796 -0.19613081
-0.1304492 0.16108114 -0.28728744 -0.13491416 -0.09451898 0.3310005 0.012584887 0.19273254
-0.06357147 -0.130688 0.09676575 -0.034195274 -0.31386307 0.14357175 -0.23768294 -0.053928368
-0.04644832 0.33600122 0.29736945 0.25255805 0.19414477 -0.32323542 0.13418278 0.078859486
-0.0790652 -0.54297054 0.09953571 0.22946073 -0.067388974 -0.14100267 0.025161 0.057105653
0.12810971 0.25038245 -0.41107455 -0.03280035 -0.09345773 -0.50480396 0.107087895 0.023483528
0.0381432 0.06313216 -0.009590139 -0.07371651 0.103036225 0.20468919 0.014871499 0.2771655
0.079326555 0.045353487 0.43711308 0.027749037 0.1289217 -0.16700438 -0.07756842 0.4453588
-0.08492198 0.15294807 -0.17599715 0.21675926 0.24723451 0.045159392 -0.62423813 -0.11440547
-0.10951277 0.0015429221 0.03679038 -0.13452983 -0.27345067 -0.016513528 0.72086966 -0.08145694
0.056963123 -0.05743072 0.24310787 -0.15459013 0.28796425 0.471914 -0.1655281 0.08153813
0.62637585 0.20877695 0.3416623 0.31991994 0.11063686 0.04058273 -0.07262095 0.20210847
0.13537104 -0.44858298 0.34411436 0.0076944395 -0.2743652 0.5246832 -0.07447108 0.064181134
0.14234705 0.4363373 0.32389912 -0.23596099 -0.05468346 0.16697265 0.14635889 -0.28628474

sequential_2/dense_16/BiasAdd/ReadVariableOp:0 f4 [64]
00000000: 915d a93e 3da1 9e3e 27c3 713d c8c4 c13e
00000010: 4025 943e 9f1e 9a3d 48f2 013e 96a4 033f
00000020: 0e7d b93e fbec e43d e016 283e d079 b63e
00000030: db80 a03e d43f 903e e8e0 f5bd 7478 a13e
00000040: b5d0 d03e 9dcb ed3e d669 923e d95f 0fbd
00000050: 74bd ef3e 41e0 ea3b c83b 623e a579 0a3f
00000060: 9378 113f 64ab 13be 12ad 2d3e a0c3 f93e
00000070: 249a a13e 0585 343f 7706 b93d d99e 333e
00000080: 7fab 193e d155 da3e 4ddb 0d3f 2bc7 b13e
00000090: 6bdf 233d c62e a13e 26e3 ea3e a3df 92be
000000a0: c3f8 af3e 09d8 0b3d c408 183d 8992 d0bd
000000b0: cb31 263d 6599 82be dbd4 1f3f 1ce7 ce3e
000000c0: d75f 203e 42fa ff3e e3ae 6b3e 1bca b43e
000000d0: 1f20 1c3e 582a ed3e 55d5 f63e c6c2 823e
000000e0: 59cc 1a3e 01f2 6abc 56b1 243d 2c4b f93d
000000f0: 4071 3a3f 69c8 033f c7d8 ab3e cfb5 73bd
0.33079198 0.3098239 0.059024002 0.37845445 0.2893467 0.07525372 0.12690079 0.51423013
0.36228222 0.11178013 0.16414976 0.3563981 0.3134831 0.28173697 -0.12005788 0.3153721
0.4078423 0.46444407 0.2859637 -0.035003517 0.4682423 0.0071678464 0.22093117 0.54091865
0.56824607 -0.14420849 0.16960552 0.48782063 0.31562912 0.7051547 0.09034436 0.17541064
0.15006827 0.42643598 0.5541275 0.34722266 0.04000799 0.31480998 0.45876426 -0.28686246
0.34369478 0.034141574 0.037117735 -0.10184199 0.04057483 -0.25507656 0.62434167 0.40410697
0.1566156 0.4999562 0.23015933 0.35310444 0.15246628 0.46321368 0.48209634 0.25539225
0.15117015 -0.014339925 0.040208183 0.12172541 0.72829056 0.51477677 0.33563825 -0.059499558
